…
, merge_proposal_num=100, model='deeplabv3_swin_transformer', name='swin_voc2012_best', not_loss_proposal=False, num_classes=[1, 1, 15], output_stride=16, overlap=True, prev_classes=2, print_interval=10, proposal_channel=100, pseudo=True, pseudo_thresh=0.7, random_seed=1, separable_conv=False, step='0,1,2,3,4,5', step_size=10000, sum_classes=15, task='15-1', test_only=True, test_val=False, train_epoch=50, unknown=True, unknown_cluster=1, val_batch_size=1, val_interval=100, w_transfer=True, weight_decay=0.0001)
==============================================
ModuleList(
  (0): Sequential(
    (0): Conv2d(256, 256, kernel_size=(3, 3), stride=(1, 1), padding=(1, 1), bias=False)
    (1): BatchNorm2d(256, eps=1e-05, momentum=0.1, affine=True, track_running_stats=True)
    (2): ReLU(inplace=True)
  )
  (1): Sequential(
    (0): Conv2d(256, 256, kernel_size=(3, 3), stride=(1, 1), padding=(1, 1), bias=False)
    (1): BatchNorm2d(256, eps=1e-05, momentum=0.1, affine=True, track_running_stats=True)
    (2): ReLU(inplace=True)
  )
  (2): Sequential(
    (0): Conv2d(256, 256, kernel_size=(3, 3), stride=(1, 1), padding=(1, 1), bias=False)
    (1): BatchNorm2d(256, eps=1e-05, momentum=0.1, affine=True, track_running_stats=True)
    (2): ReLU(inplace=True)
  )
)
optim_type:ADAMW
----------- trainable parameters --------------
backbone.model.patch_embed.proj.weight torch.Size([128, 3, 4, 4])
backbone.model.patch_embed.proj.bias torch.Size([128])
backbone.model.patch_embed.norm.weight torch.Size([128])
backbone.model.patch_embed.norm.bias torch.Size([128])
…
rge_proposal_num=100, model='deeplabv3_swin_transformer', name='swin_voc2012_best', not_loss_proposal=False, num_classes=[1, 1, 15, 1], output_stride=16, overlap=True, prev_classes=17, print_interval=10, proposal_channel=100, pseudo=True, pseudo_thresh=0.7, random_seed=1, separable_conv=False, step='0,1,2,3,4,5', step_size=10000, sum_classes=16, task='15-1', test_only=True, test_val=False, train_epoch=50, unknown=True, unknown_cluster=1, val_batch_size=1, val_interval=100, w_transfer=True, weight_decay=0.0001)
==============================================
ModuleList(
  (0): Sequential(
    (0): Conv2d(256, 256, kernel_size=(3, 3), stride=(1, 1), padding=(1, 1), bias=False)
    (1): BatchNorm2d(256, eps=1e-05, momentum=0.1, affine=True, track_running_stats=True)
    (2): ReLU(inplace=True)
  )
  (1): Sequential(
    (0): Conv2d(256, 256, kernel_size=(3, 3), stride=(1, 1), padding=(1, 1), bias=False)
    (1): BatchNorm2d(256, eps=1e-05, momentum=0.1, affine=True, track_running_stats=True)
    (2): ReLU(inplace=True)
  )
  (2): Sequential(
    (0): Conv2d(256, 256, kernel_size=(3, 3), stride=(1, 1), padding=(1, 1), bias=False)
    (1): BatchNorm2d(256, eps=1e-05, momentum=0.1, affine=True, track_running_stats=True)
    (2): ReLU(inplace=True)
  )
  (3): Sequential(
    (0): Conv2d(256, 256, kernel_size=(3, 3), stride=(1, 1), padding=(1, 1), bias=False)
    (1): BatchNorm2d(256, eps=1e-05, momentum=0.1, affine=True, track_running_stats=True)
    (2): ReLU(inplace=True)
  )
)
optim_type:ADAMW
----------- trainable parameters --------------
backbone.model.patch_embed.proj.weight torch.Size([128, 3, 4, 4])
backbone.model.patch_embed.proj.bias torch.Size([128])
backbone.model.patch_embed.norm.weight torch.Size([128])
backbone.model.patch_embed.norm.bias torch.Size([128])
…
_proposal_num=100, model='deeplabv3_swin_transformer', name='swin_voc2012_best', not_loss_proposal=False, num_classes=[1, 1, 15, 1, 1], output_stride=16, overlap=True, prev_classes=18, print_interval=10, proposal_channel=100, pseudo=True, pseudo_thresh=0.7, random_seed=1, separable_conv=False, step='0,1,2,3,4,5', step_size=10000, sum_classes=17, task='15-1', test_only=True, test_val=False, train_epoch=50, unknown=True, unknown_cluster=1, val_batch_size=1, val_interval=100, w_transfer=True, weight_decay=0.0001)
==============================================
ModuleList(
  (0): Sequential(
    (0): Conv2d(256, 256, kernel_size=(3, 3), stride=(1, 1), padding=(1, 1), bias=False)
    (1): BatchNorm2d(256, eps=1e-05, momentum=0.1, affine=True, track_running_stats=True)
    (2): ReLU(inplace=True)
  )
  (1): Sequential(
    (0): Conv2d(256, 256, kernel_size=(3, 3), stride=(1, 1), padding=(1, 1), bias=False)
    (1): BatchNorm2d(256, eps=1e-05, momentum=0.1, affine=True, track_running_stats=True)
    (2): ReLU(inplace=True)
  )
  (2): Sequential(
    (0): Conv2d(256, 256, kernel_size=(3, 3), stride=(1, 1), padding=(1, 1), bias=False)
    (1): BatchNorm2d(256, eps=1e-05, momentum=0.1, affine=True, track_running_stats=True)
    (2): ReLU(inplace=True)
  )
  (3): Sequential(
    (0): Conv2d(256, 256, kernel_size=(3, 3), stride=(1, 1), padding=(1, 1), bias=False)
    (1): BatchNorm2d(256, eps=1e-05, momentum=0.1, affine=True, track_running_stats=True)
    (2): ReLU(inplace=True)
  )
  (4): Sequential(
    (0): Conv2d(256, 256, kernel_size=(3, 3), stride=(1, 1), padding=(1, 1), bias=False)
    (1): BatchNorm2d(256, eps=1e-05, momentum=0.1, affine=True, track_running_stats=True)
    (2): ReLU(inplace=True)
  )
)
optim_type:ADAMW
----------- trainable parameters --------------
backbone.model.patch_embed.proj.weight torch.Size([128, 3, 4, 4])
backbone.model.patch_embed.proj.bias torch.Size([128])
backbone.model.patch_embed.norm.weight torch.Size([128])
backbone.model.patch_embed.norm.bias torch.Size([128])
…
oposal_num=100, model='deeplabv3_swin_transformer', name='swin_voc2012_best', not_loss_proposal=False, num_classes=[1, 1, 15, 1, 1, 1], output_stride=16, overlap=True, prev_classes=19, print_interval=10, proposal_channel=100, pseudo=True, pseudo_thresh=0.7, random_seed=1, separable_conv=False, step='0,1,2,3,4,5', step_size=10000, sum_classes=18, task='15-1', test_only=True, test_val=False, train_epoch=50, unknown=True, unknown_cluster=1, val_batch_size=1, val_interval=100, w_transfer=True, weight_decay=0.0001)
==============================================
ModuleList(
  (0): Sequential(
    (0): Conv2d(256, 256, kernel_size=(3, 3), stride=(1, 1), padding=(1, 1), bias=False)
    (1): BatchNorm2d(256, eps=1e-05, momentum=0.1, affine=True, track_running_stats=True)
    (2): ReLU(inplace=True)
  )
  (1): Sequential(
    (0): Conv2d(256, 256, kernel_size=(3, 3), stride=(1, 1), padding=(1, 1), bias=False)
    (1): BatchNorm2d(256, eps=1e-05, momentum=0.1, affine=True, track_running_stats=True)
    (2): ReLU(inplace=True)
  )
  (2): Sequential(
    (0): Conv2d(256, 256, kernel_size=(3, 3), stride=(1, 1), padding=(1, 1), bias=False)
    (1): BatchNorm2d(256, eps=1e-05, momentum=0.1, affine=True, track_running_stats=True)
    (2): ReLU(inplace=True)
  )
  (3): Sequential(
    (0): Conv2d(256, 256, kernel_size=(3, 3), stride=(1, 1), padding=(1, 1), bias=False)
    (1): BatchNorm2d(256, eps=1e-05, momentum=0.1, affine=True, track_running_stats=True)
    (2): ReLU(inplace=True)
  )
  (4): Sequential(
    (0): Conv2d(256, 256, kernel_size=(3, 3), stride=(1, 1), padding=(1, 1), bias=False)
    (1): BatchNorm2d(256, eps=1e-05, momentum=0.1, affine=True, track_running_stats=True)
    (2): ReLU(inplace=True)
  )
  (5): Sequential(
    (0): Conv2d(256, 256, kernel_size=(3, 3), stride=(1, 1), padding=(1, 1), bias=False)
    (1): BatchNorm2d(256, eps=1e-05, momentum=0.1, affine=True, track_running_stats=True)
    (2): ReLU(inplace=True)
  )
)
optim_type:ADAMW
----------- trainable parameters --------------
backbone.model.patch_embed.proj.weight torch.Size([128, 3, 4, 4])
backbone.model.patch_embed.proj.bias torch.Size([128])
backbone.model.patch_embed.norm.weight torch.Size([128])
backbone.model.patch_embed.norm.bias torch.Size([128])
…
sal_num=100, model='deeplabv3_swin_transformer', name='swin_voc2012_best', not_loss_proposal=False, num_classes=[1, 1, 15, 1, 1, 1, 1], output_stride=16, overlap=True, prev_classes=20, print_interval=10, proposal_channel=100, pseudo=True, pseudo_thresh=0.7, random_seed=1, separable_conv=False, step='0,1,2,3,4,5', step_size=10000, sum_classes=19, task='15-1', test_only=True, test_val=False, train_epoch=50, unknown=True, unknown_cluster=1, val_batch_size=1, val_interval=100, w_transfer=True, weight_decay=0.0001)
==============================================
ModuleList(
  (0): Sequential(
    (0): Conv2d(256, 256, kernel_size=(3, 3), stride=(1, 1), padding=(1, 1), bias=False)
    (1): BatchNorm2d(256, eps=1e-05, momentum=0.1, affine=True, track_running_stats=True)
    (2): ReLU(inplace=True)
  )
  (1): Sequential(
    (0): Conv2d(256, 256, kernel_size=(3, 3), stride=(1, 1), padding=(1, 1), bias=False)
    (1): BatchNorm2d(256, eps=1e-05, momentum=0.1, affine=True, track_running_stats=True)
    (2): ReLU(inplace=True)
  )
  (2): Sequential(
    (0): Conv2d(256, 256, kernel_size=(3, 3), stride=(1, 1), padding=(1, 1), bias=False)
    (1): BatchNorm2d(256, eps=1e-05, momentum=0.1, affine=True, track_running_stats=True)
    (2): ReLU(inplace=True)
  )
  (3): Sequential(
    (0): Conv2d(256, 256, kernel_size=(3, 3), stride=(1, 1), padding=(1, 1), bias=False)
    (1): BatchNorm2d(256, eps=1e-05, momentum=0.1, affine=True, track_running_stats=True)
    (2): ReLU(inplace=True)
  )
  (4): Sequential(
    (0): Conv2d(256, 256, kernel_size=(3, 3), stride=(1, 1), padding=(1, 1), bias=False)
    (1): BatchNorm2d(256, eps=1e-05, momentum=0.1, affine=True, track_running_stats=True)
    (2): ReLU(inplace=True)
  )
  (5): Sequential(
    (0): Conv2d(256, 256, kernel_size=(3, 3), stride=(1, 1), padding=(1, 1), bias=False)
    (1): BatchNorm2d(256, eps=1e-05, momentum=0.1, affine=True, track_running_stats=True)
    (2): ReLU(inplace=True)
  )
  (6): Sequential(
    (0): Conv2d(256, 256, kernel_size=(3, 3), stride=(1, 1), padding=(1, 1), bias=False)
    (1): BatchNorm2d(256, eps=1e-05, momentum=0.1, affine=True, track_running_stats=True)
    (2): ReLU(inplace=True)
  )
)
optim_type:ADAMW
----------- trainable parameters --------------
backbone.model.patch_embed.proj.weight torch.Size([128, 3, 4, 4])
backbone.model.patch_embed.proj.bias torch.Size([128])
backbone.model.patch_embed.norm.weight torch.Size([128])
backbone.model.patch_embed.norm.bias torch.Size([128])
…
_num=100, model='deeplabv3_swin_transformer', name='swin_voc2012_best', not_loss_proposal=False, num_classes=[1, 1, 15, 1, 1, 1, 1, 1], output_stride=16, overlap=True, prev_classes=21, print_interval=10, proposal_channel=100, pseudo=True, pseudo_thresh=0.7, random_seed=1, separable_conv=False, step='0,1,2,3,4,5', step_size=10000, sum_classes=20, task='15-1', test_only=True, test_val=False, train_epoch=50, unknown=True, unknown_cluster=1, val_batch_size=1, val_interval=100, w_transfer=True, weight_decay=0.0001)
==============================================
ModuleList(
  (0): Sequential(
    (0): Conv2d(256, 256, kernel_size=(3, 3), stride=(1, 1), padding=(1, 1), bias=False)
    (1): BatchNorm2d(256, eps=1e-05, momentum=0.1, affine=True, track_running_stats=True)
    (2): ReLU(inplace=True)
  )
  (1): Sequential(
    (0): Conv2d(256, 256, kernel_size=(3, 3), stride=(1, 1), padding=(1, 1), bias=False)
    (1): BatchNorm2d(256, eps=1e-05, momentum=0.1, affine=True, track_running_stats=True)
    (2): ReLU(inplace=True)
  )
  (2): Sequential(
    (0): Conv2d(256, 256, kernel_size=(3, 3), stride=(1, 1), padding=(1, 1), bias=False)
    (1): BatchNorm2d(256, eps=1e-05, momentum=0.1, affine=True, track_running_stats=True)
    (2): ReLU(inplace=True)
  )
  (3): Sequential(
    (0): Conv2d(256, 256, kernel_size=(3, 3), stride=(1, 1), padding=(1, 1), bias=False)
    (1): BatchNorm2d(256, eps=1e-05, momentum=0.1, affine=True, track_running_stats=True)
    (2): ReLU(inplace=True)
  )
  (4): Sequential(
    (0): Conv2d(256, 256, kernel_size=(3, 3), stride=(1, 1), padding=(1, 1), bias=False)
    (1): BatchNorm2d(256, eps=1e-05, momentum=0.1, affine=True, track_running_stats=True)
    (2): ReLU(inplace=True)
  )
  (5): Sequential(
    (0): Conv2d(256, 256, kernel_size=(3, 3), stride=(1, 1), padding=(1, 1), bias=False)
    (1): BatchNorm2d(256, eps=1e-05, momentum=0.1, affine=True, track_running_stats=True)
    (2): ReLU(inplace=True)
  )
  (6): Sequential(
    (0): Conv2d(256, 256, kernel_size=(3, 3), stride=(1, 1), padding=(1, 1), bias=False)
    (1): BatchNorm2d(256, eps=1e-05, momentum=0.1, affine=True, track_running_stats=True)
    (2): ReLU(inplace=True)
  )
  (7): Sequential(
    (0): Conv2d(256, 256, kernel_size=(3, 3), stride=(1, 1), padding=(1, 1), bias=False)
    (1): BatchNorm2d(256, eps=1e-05, momentum=0.1, affine=True, track_running_stats=True)
    (2): ReLU(inplace=True)
  )
)
optim_type:ADAMW
----------- trainable parameters --------------
backbone.model.patch_embed.proj.weight torch.Size([128, 3, 4, 4])
backbone.model.patch_embed.proj.bias torch.Size([128])
backbone.model.patch_embed.norm.weight torch.Size([128])
backbone.model.patch_embed.norm.bias torch.Size([128])
…
